…
INFO,cpus available rank: 5   [PhysicalDevice(name='/physical_device:CPU:0', device_type='CPU')]
INFO, num workers 16  rank: 0
INFO, aft load Xtrain shape (60000, 28, 28, 1) (10000, 28, 28, 1)
INFO, aft load Ytrain shape (60000,) (10000,)
INFO, the per rank shard size is 3750
INFO, aft split, Xtrain shape (3751, 28, 28, 1) (3751, 28, 28, 1)
INFO, aft split, Ytrain shape (3751,) (3751,)
Model: "sequential"
_________________________________________________________________
 Layer (type)                Output Shape              Param #   
=================================================================
 reshape (Reshape)           (None, 28, 28, 1)         0         
                                                                 
 conv2d (Conv2D)             (None, 26, 26, 16)        160       
                                                                 
 conv2d_1 (Conv2D)           (None, 24, 24, 16)        2320      
                                                                 
 max_pooling2d (MaxPooling2D  (None, 12, 12, 16)       0         
 )                                                               
                                                                 
 flatten (Flatten)           (None, 2304)              0         
                                                                 
 dense (Dense)               (None, 128)               295040    
                                                                 
 dense_1 (Dense)             (None, 10)                1290      
                                                                 
=================================================================
Total params: 298,810
Trainable params: 298,810
Non-trainable params: 0
_________________________________________________________________
Epoch 1/15
118/118 - 3s - loss: 0.2802 - accuracy: 0.9086 - val_loss: 0.1097 - val_accuracy: 0.9651 - 3s/epoch - 27ms/step
Epoch 2/15
…
